…
970/970 - 62s - 64ms/step - accuracy: 0.8171 - loss: 0.4507 - val_accuracy: 0.6095 - val_loss: 1.4096
Epoch 11/20
970/970 - 62s - 64ms/step - accuracy: 0.8293 - loss: 0.4229 - val_accuracy: 0.4361 - val_loss: 1.9118
Epoch 12/20
970/970 - 62s - 64ms/step - accuracy: 0.8330 - loss: 0.4179 - val_accuracy: 0.5803 - val_loss: 1.5026
Model: "sequential_1"
┏━━━━━━━━━━━━━━━━━━━━━━━━━━━━━━━━━━━━━━┳━━━━━━━━━━━━━━━━━━━━━━━━━━━━━┳━━━━━━━━━━━━━━━━━┓
┃ Layer (type)                         ┃ Output Shape                ┃         Param # ┃
┡━━━━━━━━━━━━━━━━━━━━━━━━━━━━━━━━━━━━━━╇━━━━━━━━━━━━━━━━━━━━━━━━━━━━━╇━━━━━━━━━━━━━━━━━┩
│ sequential (Sequential)              │ (None, 128, 128, 4)         │               0 │
├──────────────────────────────────────┼─────────────────────────────┼─────────────────┤
│ conv2d (Conv2D)                      │ (None, 126, 126, 64)        │           2,368 │
├──────────────────────────────────────┼─────────────────────────────┼─────────────────┤
│ batch_normalization                  │ (None, 126, 126, 64)        │             256 │
│ (BatchNormalization)                 │                             │                 │
├──────────────────────────────────────┼─────────────────────────────┼─────────────────┤
│ max_pooling2d (MaxPooling2D)         │ (None, 63, 63, 64)          │               0 │
├──────────────────────────────────────┼─────────────────────────────┼─────────────────┤
│ conv2d_1 (Conv2D)                    │ (None, 61, 61, 128)         │          73,856 │
├──────────────────────────────────────┼─────────────────────────────┼─────────────────┤
│ batch_normalization_1                │ (None, 61, 61, 128)         │             512 │
│ (BatchNormalization)                 │                             │                 │
├──────────────────────────────────────┼─────────────────────────────┼─────────────────┤
│ max_pooling2d_1 (MaxPooling2D)       │ (None, 30, 30, 128)         │               0 │
├──────────────────────────────────────┼─────────────────────────────┼─────────────────┤
│ conv2d_2 (Conv2D)                    │ (None, 28, 28, 256)         │         295,168 │
├──────────────────────────────────────┼─────────────────────────────┼─────────────────┤
│ batch_normalization_2                │ (None, 28, 28, 256)         │           1,024 │
│ (BatchNormalization)                 │                             │                 │
├──────────────────────────────────────┼─────────────────────────────┼─────────────────┤
│ global_average_pooling2d             │ (None, 256)                 │               0 │
│ (GlobalAveragePooling2D)             │                             │                 │
├──────────────────────────────────────┼─────────────────────────────┼─────────────────┤
│ dense (Dense)                        │ (None, 32)                  │           8,224 │
├──────────────────────────────────────┼─────────────────────────────┼─────────────────┤
│ batch_normalization_3                │ (None, 32)                  │             128 │
│ (BatchNormalization)                 │                             │                 │
├──────────────────────────────────────┼─────────────────────────────┼─────────────────┤
│ dropout (Dropout)                    │ (None, 32)                  │               0 │
├──────────────────────────────────────┼─────────────────────────────┼─────────────────┤
│ dense_1 (Dense)                      │ (None, 5)                   │             165 │
└──────────────────────────────────────┴─────────────────────────────┴─────────────────┘
 Total params: 1,143,185 (4.36 MB)
 Trainable params: 380,741 (1.45 MB)
 Non-trainable params: 960 (3.75 KB)
 Optimizer params: 761,484 (2.90 MB)
None
W0000 00:00:1781459474.737662   19171 cpu_allocator_impl.cc:82] Allocation of 1419247616 exceeds 10% of free system memory.
170/170 ━━━━━━━━━━━━━━━━━━━━ 2s 14ms/step - accuracy: 0.6123 - loss: 1.2224
…
